etc/ckpt/flower_model/model_round_10.pth (torch, 126810 bytes, 9 tensors)

conv1.weight f4 [16, 1, 16, 3]
000000 b2 fc 9c bf 33 72 4a 3e 27 63 8d 3f 5d aa 9b bf
       -1.2264616 0.19770126 1.1045884 -1.2161366
000010 43 67 a8 3e ce a3 b3 3e 1c 9d 9e bf 1b 44 e7 bd
       0.32891282 0.3508591 -1.2391696 -0.11292287
000020 ef 9f 88 be f0 16 19 bf d3 b7 19 bf 74 2e 2f 3f
       -0.2668452 -0.59800625 -0.6004612 0.68430257
000030 fa 36 05 bf ae 07 87 3c 19 08 79 3e 4e 3d ea 3d
       -0.5203701 0.016483154 0.24319495 0.11437474
000040 c9 ba c5 bd 9c 8f 4a bd 19 2f 97 3e d3 d7 40 be
       -0.09654767 -0.049453363 0.2952812 -0.1883233
000050 eb c1 f2 3e f8 8e dc 3d d5 2d f1 bf a2 88 73 3e
       0.47413573 0.107694566 -1.8842112 0.2378259
000060 87 fe c8 3e 75 c0 dd bf 33 16 29 bd 57 3b 85 bd
       0.3925669 -1.7324358 -0.041280936 -0.06505459
000070 a0 69 bd bf f9 f2 66 bf 19 ac 2a 3f 19 38 f8 be
       -1.4797859 -0.90214497 0.6666885 -0.484803
000080 10 8b c1 3d e5 d7 d7 3e 88 4c 07 bf 5e ae 1b 3f
       0.09450352 0.42156902 -0.5285115 0.6081294
000090 09 29 79 3f be f6 37 3f 2d 57 1b 3e fe a1 b1 be
       0.9732824 0.71860874 0.15169974 -0.34693903
0000a0 63 6f c9 3d 62 b6 7e bf 59 53 ff 3e fc e7 c6 3d
       0.098356985 -0.99497044 0.49868277 0.09712216
0000b0 41 b1 16 3f 1a 12 2c bf 47 80 20 bf fa 55 14 bf
       0.5886422 -0.6721512 -0.62695736 -0.5794369
0000c0 0a eb 9e 3e 79 02 f3 bd 19 0a 04 3f 44 30 cb 3e
       0.31038696 -0.11865706 0.5157791 0.3968526
0000d0 ec b2 77 bf e0 e4 4e bf 25 45 8c 3f 07 32 12 bf
       -0.9675739 -0.80817986 1.0958601 -0.57107586
0000e0 91 82 35 bd 2d b9 86 bf 7e 9e 4f be ad 3b dc 3e
       -0.04431397 -1.0525261 -0.20275304 0.4301428
0000f0 77 bd d6 bd d3 93 62 be 7f 2b a5 3d cb 8e 98 3e
       -0.10485356 -0.22126703 0.08064937 0.29796442
000100 17 b0 a2 be 4d 92 bc be 34 75 85 3f 4b 91 bd be
       -0.3177497 -0.3683037 1.0426393 -0.37024912
000110 d8 44 26 bf 75 ee 01 c0 72 72 2e bf 84 af dd be
       -0.649488 -2.0301793 -0.6814338 -0.4329797
000120 20 f1 c7 be fb f6 df be c0 58 fd be d9 78 f4 3e
       -0.3905115 -0.4374312 -0.49481773 0.4774845
000130 37 25 4d be 0f f0 cd bd 84 95 10 3f 8a 5b bf be
       -0.20033728 -0.10055553 0.5647814 -0.37374526
000140 0d d5 44 be 3e 0b a4 bf b5 25 09 3f b7 75 aa be
       -0.19221897 -1.2815931 0.5357316 -0.33292934
000150 a4 de f3 3e 6c 31 77 3e ad 39 a3 be be 84 1c 3f
       0.476308 0.24139947 -0.3187994 0.6114005
000160 ab 04 e4 bd c6 d1 3a bf c7 18 83 3a 94 2c af be
       -0.11133703 -0.7297634 0.0010001891 -0.34213698
000170 1a bd 56 bf cc 12 bc bf 79 2b b3 3f 00 5f a4 bd
       -0.83882296 -1.4693236 1.3997642 -0.08025932
000180 5a fe 1f bf 45 31 83 bf 22 6c a0 3d c4 71 c0 be
       -0.62497485 -1.0249411 0.07833125 -0.37586796
000190 f4 b1 26 3f a7 a6 13 bf 7e 7d d2 be 14 8a d7 3e
       0.65115285 -0.57676166 -0.41111368 0.42097533
0001a0 6d 1a d2 be 93 11 10 bf 84 d1 ce 3e 34 97 f9 be
       -0.41035786 -0.56276816 0.40394223 -0.4874817
0001b0 44 d8 95 be be 16 11 3f 84 32 3c bf 89 98 16 bf
       -0.2926656 0.56675327 -0.7351458 -0.588265
0001c0 4d 39 ce 3e b8 64 27 bf b6 bf 88 bf ac 43 94 be
       0.40278092 -0.6538806 -1.0683506 -0.2895788
0001d0 5a aa 93 be 85 8b cb bd cd 7a 97 3e 44 a9 17 bf
       -0.28840905 -0.099387206 0.29585877 -0.59242654
0001e0 74 e7 a6 bd 1b 27 b3 3d 3c 49 03 bf e7 a9 6b 3d
       -0.08149615 0.08747693 -0.5128362 0.05753508
0001f0 d2 c2 b4 3e 2b 80 e6 be e5 2c ab 3e 92 a1 43 3f
       0.35304886 -0.4501966 0.3343269 0.7641841
000200 d7 6c b8 bd 6d 5c b1 be fd e6 8c 3e 3d 74 d7 bd
       -0.090051346 -0.34640828 0.2751998 -0.105202176
000210 98 8d 80 bd 6b 6f e2 3b 6c 02 dd bc 4f e1 c1 bd
       -0.06277007 0.0069102547 -0.026978694 -0.09466802
000220 ea 53 de 3d d2 ce 9e bc 75 53 59 bd da db 3a 3f
       0.10855849 -0.019385729 -0.053058106 0.72991717
000230 9e c6 e1 3e 10 af 71 3f 2d 0b 3e be cf 34 05 bf
       0.44096845 0.9440775 -0.1855895 -0.52033705
000240 3c 90 b1 be 97 6a 20 3d 03 ed 8d be cb 70 fa 3e
       -0.34680355 0.039164152 -0.27719888 0.4891418
000250 d2 70 14 bf 36 b8 45 be da df 52 bd c4 16 41 be
       -0.5798465 -0.19308552 -0.051483013 -0.1885634
000260 4f dc 1e bf 5c de 53 be 48 22 a1 be b4 d4 1e bf
       -0.62054914 -0.20690292 -0.31471467 -0.6204331
000270 a4 b0 e0 be 5b 6e d4 3d da d0 8d 3d f7 28 68 bf
       -0.43884766 0.10372611 0.06924601 -0.9068751
000280 db fe dc be cf 1c af be 62 09 ba be bf 3c 2c bf
       -0.4316319 -0.34201667 -0.36335284 -0.6728019
000290 b5 66 0b bf 21 e5 5b 3e 4b f0 79 bf ce a5 fa 3d
       -0.54453593 0.21474124 -0.9763228 0.12238656
0002a0 21 51 9b 3e f4 0f 83 bf dc e4 7d be 4c 39 76 bf
       0.30335334 -1.0239244 -0.24794334 -0.9618118
0002b0 4b 4c 87 bd d9 e9 49 3e 9f e2 32 be f0 3a 05 be
       -0.066063486 0.19718112 -0.17469262 -0.13010764
0002c0 19 a9 d4 be e4 3f 96 3d 89 0f 49 bf 4d 93 0f bf
       -0.4153526 0.07336405 -0.7853933 -0.5608414
0002d0 54 0f 2b 3f e2 fb b8 bc a1 2f c5 3d b3 e0 d4 bf
       0.66820264 -0.022581045 0.09628225 -1.6631073
0002e0 23 9f 61 3f 7b 31 51 3e cc 0f fb 3e 95 25 db 3f
       0.8813345 0.20429032 0.4903549 1.7120844
0002f0 2b 4d da bd 9e 35 fe bd 39 30 c3 3f d9 63 0d 3e
       -0.1065925 -0.124125704 1.5249091 0.1380762
000300 62 1b 66 be fc 36 87 3e 7f 46 ac be 75 52 e8 be
       -0.22471383 0.26409137 -0.33647534 -0.4537541
000310 be 60 3a 3c 14 ed 5d be a4 96 7b bf a4 a2 1a 3e
       0.011375604 -0.2167247 -0.98276734 0.15101105
000320 eb c0 d5 bd 6e 3f 99 3d 21 62 d3 3e 85 1c 20 bf
       -0.10437187 0.074828014 0.41285804 -0.6254352
000330 2a d0 b4 be d9 b1 3a be 84 15 35 be ac 0c b6 3e
       -0.35315067 -0.18231906 -0.17683989 0.35556543
000340 b9 a2 72 3e 11 8f 5b be f2 62 fa 3d 2e b9 a9 be
       0.23694886 -0.21441294 0.122259036 -0.33149093
000350 c4 cb c7 3d 6a cb 91 be 7b 9d 2c bd 4e a1 a4 3e
       0.09755662 -0.28475505 -0.042142373 0.32154316
000360 17 6a c9 bd b6 d8 84 3e 24 5c 30 bf 39 b2 e8 ba
       -0.09834688 0.25946587 -0.68890595 -0.001775331
000370 7c 16 7e 3e 28 9a 9a bd 45 5d 20 bf 22 49 e0 bd
       0.24813265 -0.07548934 -0.6264232 -0.10951449
000380 5c ff 92 3d 56 f2 2e be 53 4f 4f 3e f9 06 e3 3e
       0.07177612 -0.17084631 0.20245104 0.44341257
000390 90 28 05 bf 3b 02 2e 3f e7 6c 8d be 01 9e 99 3f
       -0.5201502 0.67972153 -0.27622148 1.2001344
0003a0 b7 da e4 3f 31 a4 9a 3e 5a cb ad bf e6 a7 c2 be
       1.7879246 0.30203393 -1.3577683 -0.3801872
0003b0 e1 1c 9a 3d 24 7a cd bf 98 b1 41 be 50 4e 55 3f
       0.075250395 -1.6052899 -0.18915403 0.8332262
0003c0 74 57 ba bf d4 74 5a be e4 95 8d be 89 1d 90 3c
       -1.4557939 -0.21333629 -0.2765342 0.017592208
0003d0 22 e2 18 3f d9 bf af bd d6 55 e2 3e 3a fc 11 3f
       0.5972005 -0.08581514 0.44206113 0.5702549
0003e0 34 16 10 3f 45 9f da 3e 8f 47 a6 3e 22 81 b6 3d
       0.5628388 0.42699638 0.3247647 0.08911349
0003f0 86 60 41 bd 19 8b e1 bd 3b fc 09 bf d6 35 5f be
       -0.047211193 -0.11012859 -0.539005 -0.2179788

conv1.bias f4 [16]
000000 92 bf dd 3d 76 b9 3a 3f fc f6 b7 be b3 99 5f 3f
       0.10827555 0.7293924 -0.35930622 0.873439
000010 d0 ab 60 bf 27 37 68 be 51 c2 89 be 29 e7 fb 3b
       -0.87762165 -0.22677289 -0.26906064 0.0076874685
000020 59 0d 2f bf 52 61 ca 3d 69 26 30 bd 69 88 14 be
       -0.6837974 0.098818436 -0.04300538 -0.14505161
000030 d7 83 38 be 1e 3c e7 3d 5e 08 b5 3e 0b d9 fd be
       -0.18019043 0.11290763 0.35357946 -0.49579653

conv2.weight f4 [16, 16, 3, 5]
000000 e2 d3 20 be ae 94 fc 3d 3e d3 70 bf 98 35 9e bf
       -0.15705827 0.12333046 -0.9407233 -1.2360106
000010 d3 93 5e bf df fe 61 bf 27 7d a8 bf 47 b4 ca be
       -0.8694431 -0.8827953 -1.3163193 -0.39590666
000020 c7 d2 83 bf 1c dd fb be 08 d0 97 bf 51 8f 92 3e
       -1.0298699 -0.4919213 -1.1860361 0.28624967
000030 4e c0 c1 be 04 94 88 bf e2 6a 3e bf 74 b5 50 3f
       -0.3784203 -1.0670171 -0.7438184 0.81526875
000040 a4 51 1f bf 90 80 a6 bf 34 25 4a bf ec f7 7c bf
       -0.6223395 -1.3007984 -0.7896302 -0.988158
000050 49 e3 80 be 0c 4c 87 3d 6b 12 f8 be b7 50 e4 be
       -0.25173405 0.06606302 -0.48451552 -0.4459283
000060 cc 3c 18 bf 1b 41 d2 3d 47 3e 79 3c cc 55 42 bd
       -0.5946777 0.10266324 0.015212602 -0.047445104
000070 e9 50 b4 be 05 7f b9 be 44 33 2f bf 95 7f 15 bf
       -0.3521798 -0.3622972 -0.684376 -0.583978
000080 0e 8e 86 bf b3 e3 4f bf 9c 7a cc bd 3e 82 18 3e
       -1.0512102 -0.81206816 -0.099843234 0.14893433
000090 c0 e9 ae 3e 50 15 85 be 94 e8 0c bf 5b a4 10 be
       0.34162712 -0.25992823 -0.55042386 -0.14125197
0000a0 25 b1 44 be 54 08 55 be bd 40 84 bf d2 47 e7 3e
       -0.192082 -0.20803958 -1.0332257 0.45171982
0000b0 dc e0 f5 3e 34 a9 98 3d bc 40 2c bf 41 9f 35 be
       0.48023117 0.07454148 -0.67286277 -0.17736532
0000c0 d8 5c 9c bc 7b 54 55 be 7b ff 25 bf ac 71 cb 3e
       -0.01908724 -0.20833008 -0.6484296 0.39735162
0000d0 72 d4 62 bf 74 1e 87 3e 8d bc c0 3e d5 bd 70 3f
       -0.88605416 0.2639042 0.37643853 0.9403966
0000e0 88 41 d0 be 05 d2 9c bd 89 e9 72 3d 2b ca 79 3e
       -0.40674996 -0.076572455 0.059304748 0.24393527
0000f0 ab 90 81 bf 86 0d 5f be 0c 2a 26 bf 79 c3 fd be
       -1.0122274 -0.21782503 -0.6490791 -0.49563196
000100 4a 14 bc bd ab 89 8a 3e e2 05 99 bd 00 a1 3c 3e
       -0.09183557 0.27058157 -0.07471825 0.18420792
000110 40 6f ce 3e 2f 35 4a be d0 e1 44 bf 50 5c 4a 3e
       0.40319252 -0.1974685 -0.7690706 0.19761777
000120 9d fd 16 be b4 ad 3f bd 14 42 bf be d4 fe 05 bf
       -0.14745183 -0.046796516 -0.373551 -0.5234196
000130 7d 1c 83 3e 84 91 7b be 6e 19 29 bf d5 8f d2 3e
       0.25607672 -0.24567229 -0.6605443 0.4112536
000140 20 06 66 bf 95 d0 18 3e 7c 06 70 3f 62 80 05 bf
       -0.89853096 0.14923318 0.93759894 -0.5214902
000150 e6 e6 84 be bc bf 86 be 73 75 d0 be 42 32 a0 3d
       -0.25957412 -0.26318157 -0.40714607 0.07822086
000160 59 2f 9e 3d d9 6c 44 3e 17 b3 f6 bd 32 2c 80 3d
       0.077238746 0.19182147 -0.120458774 0.062584296
000170 40 0a f0 bd 4b 2f 1a c0 5b d0 a3 3e 8c 74 b8 bf
       -0.11720705 -2.4091365 0.319949 -1.4410567
000180 b3 e2 40 3f 87 f3 1d 3f 95 51 6b bf 3c 41 04 bf
       0.75345916 0.6169972 -0.9192136 -0.5166204
000190 09 d2 ec bd 56 8b b0 bf 96 83 0e bf b6 49 b4 3e
       -0.115634985 -1.3792522 -0.55669534 0.35212487
0001a0 ac 93 b0 bf a9 f7 38 3e 5f a5 4c be 38 be c4 bf
       -1.3795066 0.18063225 -0.19984959 -1.537055
0001b0 0b 7a f7 3e 32 81 12 c0 b5 e5 b5 3e ac 15 12 be
       0.483353 -2.2891355 0.35526815 -0.1426608
0001c0 0b 1a 12 3e e9 97 f4 bd 2c 8c a2 bf f7 80 90 bf
       0.14267747 -0.11943037 -1.2699027 -1.1289357
0001d0 d9 16 4f bf 51 04 ae 3d a4 c8 a5 be 40 69 d9 bb
       -0.8089424 0.08496917 -0.3237964 -0.006634861
0001e0 b2 e6 f6 3e 15 6f 99 3e a0 aa fb bd db 24 ad 3c
       0.48222882 0.2996756 -0.122884035 0.021135738
0001f0 4b 53 55 be 02 f5 1d 3e ee 91 9e bf b3 58 42 3e
       -0.20832555 0.15425494 -1.2388284 0.18979149
000200 02 01 d1 3d 27 00 29 bf 4a 38 d8 be 82 29 8b bf
       0.1020527 -0.6601586 -0.42230445 -1.0872042
000210 a0 3b 9b 3d ee 97 76 bd af af 82 bf 79 21 5b be
       0.07579732 -0.060203485 -1.0209864 -0.21399488
000220 ea e2 bb be 3c e9 00 bf a4 52 96 bf a9 74 8b bd
       -0.3669656 -0.5035589 -1.174397 -0.068093605
000230 7e 76 26 bd 1c 92 15 bf c7 a9 a2 ba fe a2 a4 bf
       -0.040640347 -0.5842607 -0.0012410217 -1.2862241
000240 5b 1f 92 bd 01 97 26 bf 67 c9 67 3c 9c 63 2c 3f
       -0.07134887 -0.65074164 0.014147139 0.6733949
000250 dc b0 84 bf 3d 19 3d be 26 d1 96 bf eb 96 83 be
       -1.0366473 -0.18466659 -1.1782577 -0.2570108
000260 04 22 fc be 4f d5 61 be 31 8a 50 bd d5 dc 1b 3f
       -0.49244702 -0.22054027 -0.05091304 0.6088384
000270 e7 2a 11 3f fc 66 41 bf 2d 50 11 bd 8b af 26 bf
       0.5670609 -0.75547767 -0.035476852 -0.6511161
000280 4b d8 a3 be 52 a1 16 bf e7 3e 74 be 84 b1 cc 3d
       -0.32000956 -0.58839905 -0.2385212 0.09994796
000290 5b 6d 19 3f 54 03 dd be 35 d3 22 3d 5c a7 b7 be
       0.5993249 -0.43166602 0.039752204 -0.35869873
0002a0 35 71 da be e1 4f a3 3e 3b 47 9b bf 57 9e 18 3e
       -0.42664495 0.3189688 -1.2131113 0.14904152
0002b0 35 28 bb 3e af 5f 37 be 25 5c 3a be dd d2 07 bf
       0.36554113 -0.17907594 -0.18199213 -0.53056127
0002c0 c4 d7 68 be 44 18 8b bd d0 10 10 bf 2b 2a 5d be
       -0.22738558 -0.06791738 -0.56275654 -0.21598117
0002d0 27 02 90 bf a8 53 db 3e 6f 87 20 3f 40 5c 76 bf
       -1.1250657 0.42837262 0.62706655 -0.9623451
0002e0 af 00 25 bf d4 5a ff bf 3d 29 0b bf 67 84 e6 3e
       -0.6445417 -1.9949594 -0.543598 0.4502289
0002f0 cb 30 e3 3d 92 a6 dd 3d ca d6 9f bf e9 6e ec bd
       0.11093291 0.108227864 -1.2487423 -0.11544592
000300 53 fc ad be fe 3f da bd 1e 5a 0d bf e4 1f 9f 3d
       -0.3398157 -0.10656737 -0.5521563 0.077697545
000310 48 53 46 bf 72 3d ac be 7b 05 75 be 20 7f fe be
       -0.7747083 -0.3364063 -0.23927872 -0.49706364
000320 80 cb 6d 3e 51 00 b8 3e 36 8e 4e bf c6 21 9d be
       0.2322216 0.3593774 -0.80685747 -0.3068983
000330 b7 c9 d0 3d bc 68 80 3e ce ec 00 3d a8 cd 91 be
       0.10194724 0.25079906 0.031475835 -0.28477216
000340 84 3e 27 3e 94 e5 a9 be c0 e4 9e bf fc dd 2f 3e
       0.16332442 -0.33182967 -1.2413559 0.17174524
000350 be 59 a2 3e b4 88 5c bf 42 a5 4a be 27 7e 01 bf
       0.31709093 -0.8614609 -0.19789603 -0.5058312
000360 e4 ff 62 bf 80 d7 01 be c5 f9 db bb 42 66 a8 be
       -0.8867171 -0.12679863 -0.0067131245 -0.32890517
000370 8e 70 e5 3d ce 57 a1 be 20 91 26 bf ce 7e a2 be
       0.11203109 -0.31512302 -0.65065193 -0.3173737
000380 7e 00 ef 3d 5c 69 22 bc 84 36 96 be 9b 56 9b 3d
       0.11670016 -0.009912815 -0.29338467 0.07584878
000390 4d b9 e2 3d b0 f9 0a bf 28 82 34 bf e9 da f2 be
       0.110704996 -0.5428724 -0.705111 -0.4743264
0003a0 5b 8c af 3e bc 10 bd be e2 93 ff be dd e3 b1 be
       0.3428677 -0.3692683 -0.49917513 -0.34744158
0003b0 c4 cc 82 bc ca df a0 bd e7 c3 96 be c4 df cf be
       -0.01596678 -0.078551844 -0.29446337 -0.40600407
0003c0 28 17 19 be 69 00 05 be 0b 2e 6a bf 8c c0 cd be
       -0.1495024 -0.12988438 -0.91476506 -0.40185964
0003d0 ee af 6b bf 20 40 b5 be f5 21 48 be ea 76 83 bf
       -0.9206532 -0.35400486 -0.19544204 -1.0270665
0003e0 c2 55 41 bf 60 c8 a7 3e 27 8d 88 bf ae ce 70 bf
       -0.7552148 0.32770061 -1.0668076 -0.9406537
0003f0 2e 29 53 bf 44 47 2a bf 7c 6d 80 bd ae 41 7b be
       -0.8248471 -0.6651499 -0.062708825 -0.24536774

conv2.bias f4 [16]
000000 74 57 9b 3e eb 9c af be 8b 7d db bd c2 93 9f bf
       0.3034016 -0.34299406 -0.10717305 -1.2466967
000010 50 2d 4c be db 39 2f 3d ee 69 b9 be a4 fd 2d bf
       -0.1993916 0.042779785 -0.3621363 -0.6796515
000020 0e a1 5f be 30 4a 9c bd 10 a7 66 bf 81 ec 1c bf
       -0.21838781 -0.07631338 -0.9009867 -0.61298376
000030 d0 ba 8c bf 4c b6 4a bf 04 69 28 bd cc 6a f3 be
       -1.0994511 -0.7918441 -0.041115776 -0.47542417

conv3.weight f4 [32, 16, 8, 3]
000000 4c 6e 96 be a1 3a d3 be 84 fe 6f bc 7e a0 b8 be
       -0.29381025 -0.41255668 -0.014648084 -0.36059946
000010 19 3e 57 be 87 f7 42 be 24 70 f9 be a4 8c 4d be
       -0.21019782 -0.19039737 -0.4871837 -0.20073181
000020 a7 32 f6 be 82 35 3e bf c6 c0 bf be cc ac 6f bf
       -0.4808552 -0.74300396 -0.37451762 -0.9362304
000030 f4 cb 44 bf 3c 18 c6 3e 5e f2 bb 3d 24 b8 c5 3e
       -0.7687371 0.38690364 0.09177087 0.3861705
000040 20 c5 fc be ab 9c 65 be 06 b4 9b 3e 56 bf 25 3d
       -0.49369144 -0.22423045 0.30410784 0.040465675
000050 26 40 a2 be 84 f9 aa bc c7 a4 2e 3c 81 4f be be
       -0.31689566 -0.020870931 0.010659403 -0.37170032
000060 67 dd 64 3f 4b b6 49 be f5 84 0f bf fc 41 9d 3e
       0.89400333 -0.19698445 -0.5606225 0.30714405
000070 f7 d2 1d bd 03 3d 33 be 65 be f1 be c7 b4 26 be
       -0.03853127 -0.17503743 -0.47215572 -0.16279899
000080 22 65 1e be 46 70 24 bf 8e 19 7b 3e 99 5c 9a bf
       -0.15468267 -0.64233816 0.24521467 -1.2059509
000090 e5 4a f4 bd f2 1c d6 be 70 df 36 be fc 9b 47 be
       -0.119283475 -0.4181896 -0.17858672 -0.19493097
0000a0 b9 01 b3 bd ce 19 79 be 15 7f 0b be 18 21 b9 be
       -0.08740563 -0.2432625 -0.13622697 -0.3615806
0000b0 c9 6a eb 3e 27 8c 33 3e 42 6e fa 3d ee 86 fd 3d
       0.45979908 0.17533933 0.12228061 0.123792514
0000c0 44 73 14 be 89 4f 23 bf 6e 66 33 bd 7c 3a ed be
       -0.14497095 -0.63793236 -0.043798856 -0.46333683
0000d0 c0 6b a9 3e 49 20 c4 bd 21 66 e2 3d bc f2 52 be
       0.3309002 -0.095764704 0.11054636 -0.20600408
0000e0 0e 31 ca bd 76 88 33 bd 2e c6 f2 be 7e 05 d8 be
       -0.09872638 -0.04383131 -0.47416824 -0.4219169
0000f0 ed 7b 9e be 64 8a df bd 50 10 2e be 99 c6 1a bf
       -0.30953923 -0.10915068 -0.1699841 -0.60459286
000100 86 fb 8a 3e 1b 33 1d 3e 35 fa ca be 60 18 b0 3e
       0.27145022 0.15351526 -0.39644018 0.34393597
000110 be b3 3c be 92 1e 12 be 21 46 50 be b4 dc 63 bf
       -0.18427941 -0.14269474 -0.20339252 -0.8900864
000120 64 81 bc be 33 a4 33 bf fc 78 51 bf 6c b8 ac be
       -0.36817467 -0.70172423 -0.8182523 -0.33734453
000130 67 ad 8d be e5 36 26 bf 91 bf de bd a9 b0 76 bf
       -0.27671358 -0.6492751 -0.10876382 -0.9636331
000140 7a bc 3f 3f 47 67 73 bf 3c ef 84 bf f2 3f 4e bf
       0.7489697 -0.95079464 -1.0385509 -0.8056632
000150 b9 65 9a be 92 ec 4c bf e0 d7 e3 be a0 b1 69 bf
       -0.30155733 -0.8004848 -0.44500637 -0.9128666
000160 c6 c4 53 be 09 35 27 bf b4 bc d8 be 82 86 a5 be
       -0.20680532 -0.653153 -0.4233147 -0.32329184
000170 06 a8 56 bf 0b 89 57 bf 64 53 fc be ec 34 ec be
       -0.83850133 -0.84193486 -0.49282372 -0.46134126
000180 e8 1b 9e be a0 cf 2a 3e 94 ee 9a bd 84 e0 f7 be
       -0.30880666 0.16680765 -0.075650364 -0.4841348
000190 d1 13 4d bf 8c e0 5b 3e 80 8a 6f be 65 52 6a be
       -0.8010836 0.21472377 -0.23392677 -0.22882994
0001a0 b5 7f d4 be bb cc 12 3e f8 f0 11 bf 67 76 ec bd
       -0.41503683 0.14335911 -0.57008314 -0.11546021
0001b0 5b 62 5f be 8c 21 e5 be 75 f9 a6 be 70 7b 2d bd
       -0.21814863 -0.44752157 -0.32612196 -0.042354047
0001c0 2b 99 0a 3c 77 4f a6 bd 3c e7 30 3d 6f c4 0a 3e
       0.00845937 -0.081206255 0.043189272 0.13551496
0001d0 8c 27 34 be b0 0a f5 3c 56 50 a1 3c 5f ca a1 3b
       -0.17593211 0.029912323 0.019691627 0.0049374546
0001e0 5c 98 8d bf 69 70 50 bd 63 f8 96 bf 25 e2 ab be
       -1.1062121 -0.050888453 -1.1794552 -0.33570972
0001f0 aa e8 28 3f a5 44 53 3d 7b 54 d1 3d 5e f0 0a bf
       0.6598002 0.051579136 0.102211915 -0.5427302
000200 d1 fc 3a bf bf 1f 98 bf 18 a2 d4 bd 6c ca 0a be
       -0.7304202 -1.1884688 -0.103824794 -0.1355378
000210 1f d0 38 be 85 44 2d be 45 26 30 be 54 6e 4b 3d
       -0.18048142 -0.1692067 -0.17202099 0.049665764
000220 b0 b4 cc 3c 4a 54 93 bd b8 3f 19 bf bc 2c 39 3e
       0.024988502 -0.07193811 -0.5986285 0.18083471
000230 3c 35 06 be 1c 6b 38 3c 4b 4f a0 3b 7c ba 87 bf
       -0.13106245 0.011256006 0.004892265 -1.0603786
000240 eb 77 1a be 59 07 1b bf cd f4 04 bf 7b 56 22 3f
       -0.15084808 -0.60558087 -0.51936036 0.6341321
000250 a0 fa c9 be 42 70 a9 bd dc ec ca be 34 03 df be
       -0.39449024 -0.082733646 -0.39633834 -0.4355713
000260 f2 bc 17 be c2 cd bd be 4c fc 1e bf 20 f7 38 bf
       -0.1481817 -0.37071043 -0.62103724 -0.7225208
000270 d7 1b ce be c4 e0 a8 be e4 a2 6e be 04 f6 09 be
       -0.40255615 -0.32983983 -0.23304325 -0.13472754
000280 d1 47 d2 be 54 46 1b bf 05 02 23 3e bb ad f6 be
       -0.41070417 -0.6065419 0.15918739 -0.4817942
000290 9c a1 12 bf b2 da d5 be aa fd a6 be 20 b5 b1 be
       -0.57277846 -0.41768414 -0.32615405 -0.347085
0002a0 00 09 7f 3e 56 20 a3 3d 2e 56 10 bf 09 c0 2b be
       0.24905777 0.07965152 -0.563815 -0.16772474
0002b0 29 23 8d be 9b d8 48 bf 17 b2 f3 be 77 1e 3b be
       -0.27565888 -0.78455514 -0.4759681 -0.1827334
0002c0 eb 1e 50 be 26 4c 19 bf a3 20 2b be b5 db 6c bd
       -0.20324294 -0.5988182 -0.16711669 -0.057826716
0002d0 13 3d 4a be 69 e8 c9 be 7d fd 9a be 80 8c f5 3d
       -0.1974986 -0.39435127 -0.3027152 0.11989689
0002e0 f9 04 0b 3e 11 67 cf be b2 2b 16 be 64 56 77 3e
       0.13576116 -0.4050832 -0.14665106 0.24154049
0002f0 e9 0e f0 be 3e e5 8f bf 8c a8 58 be 93 e7 3d bf
       -0.46886376 -1.1241834 -0.21158046 -0.7418148
000300 8b c9 c4 bd 4e 63 3b be d4 0b 16 bf 27 af 6b 3c
       -0.09608754 -0.182996 -0.586118 0.014385021
000310 d9 bb 35 be cb 45 ac be d5 27 a2 be 25 cc 02 be
       -0.1774744 -0.33646998 -0.31671014 -0.12773187
000320 59 ed 7a be 0c c4 a2 3d bb 1e ec be 3c c9 2f be
       -0.24504603 0.07947549 -0.46117195 -0.17166609
000330 68 ab 46 be d3 d0 00 bf 57 e2 78 bf b3 43 ce bc
       -0.19401324 -0.5031864 -0.9722037 -0.025178766
000340 b9 fc e2 bd a0 8e d4 be 47 a9 ad be de 56 a8 be
       -0.11083359 -0.41515064 -0.3391821 -0.32878774
000350 ec d6 85 bf 81 06 94 3d 04 9a 71 3b 70 0b 0a bf
       -1.0456214 0.07227803 0.0036865482 -0.539237
000360 7d 04 a3 3d aa c9 34 bc b0 9d 6d be f8 0c 08 bf
       0.079598404 -0.011034409 -0.23204684 -0.5314479
000370 92 89 e2 be 14 97 a8 3d 0e aa 3e bf f2 18 1f bf
       -0.44245583 0.08231941 -0.7447823 -0.6214744
000380 b9 89 74 3c 82 2f 5e 3d 38 58 44 3e 54 67 e2 3d
       0.014925414 0.054244526 0.19174278 0.110548645
000390 a0 a4 ea bd ce 4c bd 3b a5 b3 ed 3e 3c cb 5e be
       -0.11457181 0.005776978 0.4642612 -0.21757215
0003a0 c6 8d 63 bf 19 de 6d be 55 14 bf bb e9 0c 14 3e
       -0.88888204 -0.23229255 -0.005831281 0.1445805
0003b0 7e bb df be a6 6e ad be 64 69 2e be 19 5b 8e be
       -0.43697733 -0.3387348 -0.17032391 -0.27803877
0003c0 6e dc e1 be 92 68 86 bf fc 89 83 bf f5 cc 05 bf
       -0.44113487 -1.0500662 -1.0276484 -0.52265865
0003d0 5f 1f 8f be 8d 21 8f 3d 82 87 27 bf 1f 18 a7 be
       -0.27953622 0.06988821 -0.65441144 -0.3263559
0003e0 3b f5 70 bf 9d 92 61 3e 3d a0 a2 3d 86 d4 2d bf
       -0.9412419 0.22028585 0.07940719 -0.6790241
0003f0 1b 14 f6 bd 12 75 88 be cb cb 49 bf 03 50 3f bf
       -0.120155536 -0.26651818 -0.7882659 -0.74731463

conv3.bias f4 [32]
000000 01 c5 15 bf ec f2 2d 3e e6 48 0e bf ec 97 a3 be
       -0.5850373 0.16987199 -0.55579984 -0.31951845
000010 6e 2d 66 bf 04 4a 62 bf aa c4 c0 bf 0b 2b 40 bf
       -0.8991307 -0.8839419 -1.5060017 -0.7506568
000020 44 d5 fb 3e 4a 58 0d 3e 87 60 48 3f 00 ed 5e be
       0.49186146 0.13803211 0.7827229 -0.21770096
000030 c7 7a 2a bf b0 d7 66 be 88 44 4b bf 87 0e 02 c0
       -0.66593593 -0.22543216 -0.79401445 -2.0321367
000040 02 e4 88 3f a3 a8 a4 bf ab 73 3d 3d 6c cf 1b bf
       1.0694582 -1.2863964 0.046252888 -0.60863376
000050 15 0c 6c 3f f8 b8 c3 be 1d d5 96 be 9c d4 c6 3d
       0.92205936 -0.38227057 -0.29459468 0.09708521
000060 7f 6c 12 bf 6e 0a c7 bf 6c b4 1b bf a4 07 81 bf
       -0.571968 -1.5550058 -0.60822177 -1.0080457
000070 59 ce 4c 3f 37 fb 2c bf f0 45 2d bf b2 82 7b 3f
       0.8000236 -0.67570823 -0.6768484 0.982463

conv4.weight f4 [32, 32, 4, 3]
000000 96 c4 ab bd a0 45 70 be f0 19 05 3e 82 dd c1 be
       -0.08387105 -0.2346406 0.12998176 -0.3786431
000010 87 75 6e bd 0f 05 c9 be d5 e0 aa be af de 5c be
       -0.05821755 -0.39261672 -0.33374658 -0.21569322
000020 7a e4 8c be 8b 12 b5 be c8 1e 00 be 85 65 4b bd
       -0.27518064 -0.3536571 -0.12511742 -0.049657363
000030 81 23 3e be 34 c0 7e bb a6 d6 31 bc db 3f 8a 3d
       -0.18568231 -0.0038871886 -0.010854399 0.06750461
000040 42 c8 45 bd 20 d8 1a be 74 26 76 be 76 20 1a bd
       -0.048286684 -0.15121508 -0.24038106 -0.037628613
000050 d7 31 b1 be 5a 2a 82 bd 5e 66 71 be ce 53 e8 be
       -0.34608337 -0.06355734 -0.23574206 -0.45376438
000060 df 66 aa be 7b 31 e9 3c 09 a2 98 bd 42 16 87 be
       -0.3328161 0.028465977 -0.07452781 -0.2638417
000070 5c e9 e4 bd ce c8 fd bd de 27 ed bd d6 05 cd be
       -0.11177322 -0.12391816 -0.1157987 -0.40043515
000080 af 61 12 be 7b 5f 43 bd 8f c0 43 be 10 48 39 be
       -0.14295076 -0.04769848 -0.19116424 -0.18093896
000090 0e 25 02 bf d4 0f e6 3b 4d e0 29 3e ca de 93 bb
       -0.5083779 0.00702093 0.1658947 -0.0045126425
0000a0 bc 65 ba be a9 62 49 3e de 2f d1 bd c5 c3 c9 3d
       -0.36405742 0.19666542 -0.10214208 0.09851793
0000b0 fe 1a 45 be 6f 77 a4 3d 8b 22 e4 be 27 50 f3 3d
       -0.19248578 0.08030593 -0.44557604 0.11880522
0000c0 74 58 a1 3e 49 55 bf be e2 f3 26 be 1f b6 54 bc
       0.31512797 -0.37369755 -0.16303971 -0.012982874
0000d0 76 8d 0a bd 58 6b 88 be 91 1f 8b bd ac aa 85 be
       -0.033826314 -0.26644397 -0.0679313 -0.26106775
0000e0 c9 49 a3 bd 22 05 79 bd b0 7c d9 be cc 13 b1 be
       -0.07973058 -0.06079591 -0.42477942 -0.34585416
0000f0 37 87 8c be 9b 33 13 be 0b 00 68 3e 04 2b c0 bd
       -0.2744691 -0.14375155 0.22656266 -0.093832046
000100 cb 3a 74 bd eb 22 71 be 97 33 f6 3d eb 42 9e be
       -0.05962638 -0.23548476 0.12021559 -0.3091043
000110 6f d1 8d 3c 01 77 a9 be 5f 90 05 be ac 67 41 3d
       0.01731178 -0.33098605 -0.13043354 0.04721801
000120 b4 1a b1 be 61 44 2e be a5 63 ae be f2 2c 9a be
       -0.34590685 -0.17018272 -0.34060398 -0.30112416
000130 77 4d ed bd 17 a7 e4 bd bc 66 5b be ec b1 7e be
       -0.11587041 -0.11164682 -0.21425909 -0.2487256
000140 8b 59 a8 bd d0 8e 9c be aa df 9d 3c c2 01 17 bd
       -0.08220204 -0.30577707 0.01927169 -0.03686691
000150 7c 9a 70 be 45 87 6b be 3e df bb bd 29 ae ee bd
       -0.23496431 -0.2300082 -0.091734394 -0.11654312
000160 9e ac b6 be 6b f8 ab be 25 25 58 be c1 14 bb bd
       -0.3567857 -0.33587965 -0.2110792 -0.09134818
000170 f8 41 03 be f4 0a ad be f2 ab 1f 3e 5e b8 4f be
       -0.12818134 -0.3379742 0.15592936 -0.20285174
000180 80 6b 43 3e ac 28 16 3e 54 22 b6 be 1e 2b 34 bd
       0.19083977 0.14663953 -0.35573065 -0.043986432
000190 c0 94 a6 be 2b 84 e4 be ce 60 8e bd 51 9e 8b be
       -0.32535362 -0.44632086 -0.06952058 -0.27269223
0001a0 f0 9c 67 bd 04 d1 eb be 37 19 2b bd f4 42 52 be
       -0.05654615 -0.46057904 -0.041772094 -0.20533353
0001b0 69 98 dd bd 3a 48 99 bd 34 50 9d be 8c 23 8a be
       -0.108200856 -0.07484479 -0.30725253 -0.26980245
0001c0 3b 72 4a be bc 41 96 bc 0c 88 3b be 61 91 e2 bd
       -0.19770138 -0.018341891 -0.18313617 -0.11062885
0001d0 9b 9c 22 be 5a 2f 13 be 25 f1 22 be f4 76 d3 bc
       -0.15880053 -0.14373532 -0.15912302 -0.025813557
0001e0 3b 39 41 3e 52 73 0b be 9e 63 ae 3d 95 39 39 be
       0.18869488 -0.1361821 0.08515094 -0.18088372
0001f0 fb d0 ef 3d 9c 71 16 be 66 1b ce be ba f0 3c be
       0.11709782 -0.14691776 -0.40255278 -0.18451205
000200 2d c5 01 bf ab a7 dc bd 34 b9 91 be a9 01 c2 be
       -0.5069149 -0.107741676 -0.2846161 -0.37891892
000210 b5 91 87 bd 84 d3 ab 3c cf b6 df 3d d2 80 83 be
       -0.06619588 0.020974882 0.1092354 -0.2568422
000220 b7 78 d9 be f2 70 81 be 3e 32 63 be 7c 92 ba bd
       -0.4247491 -0.25281483 -0.22187135 -0.09109971
000230 af 4a 5e be ec 56 ee be 4c b8 74 be 85 6a 2d 3e
       -0.21708177 -0.4655069 -0.23898429 0.16935165
000240 6c b0 2c be 0f 76 bb be b1 5b ba 3d 7b bb 72 be
       -0.16864175 -0.3661351 0.0909952 -0.2370433
000250 74 7e 53 bd 1c 0d 16 be b6 dd 56 be 6e fb a4 be
       -0.051634267 -0.14653438 -0.20983014 -0.32223076
000260 cf 5c d4 3c 49 f0 ae bd d4 bb 12 bc ab 46 d6 be
       0.02592316 -0.085419245 -0.0089559145 -0.4185079
000270 2b f9 cb be 69 05 e5 bb e4 e2 42 be 8b e6 e5 bd
       -0.39838538 -0.0069891703 -0.19031864 -0.11225613
000280 6c 7e 27 be 7a 56 d1 bd b4 90 ae bd 3e a9 97 be
       -0.1635682 -0.10221572 -0.08523694 -0.2962131
000290 fc eb 80 be 72 3a 89 ba 7f 36 98 bd a9 38 72 be
       -0.25180042 -0.0010469689 -0.07432269 -0.23654427
0002a0 8f 4e 84 be 9b 18 8c be d5 b0 47 be 4c a9 0b be
       -0.25841185 -0.27362522 -0.1950105 -0.136388
0002b0 de 0e e1 3d b6 8e 0b 3e 64 3d 22 be 36 d8 19 be
       0.10989164 0.13628659 -0.15843731 -0.15023884
0002c0 f4 b3 29 be 95 c0 18 be f2 4c 95 be ca 93 89 3c
       -0.16572553 -0.14917214 -0.29160267 0.016794104
0002d0 df b8 a4 3d 6f 67 52 be 46 90 8a 3c 9c 9e bb be
       0.08043074 -0.2054727 0.016914498 -0.36644447
0002e0 0c 58 be be d8 e2 ce be 0d 03 8d 3d 62 29 1c be
       -0.3717655 -0.40407443 0.068853475 -0.15250161
0002f0 7e 16 b0 be cc e5 0f bf 82 cb a4 be 1b 21 d8 be
       -0.3439216 -0.5621002 -0.32186514 -0.42212757
000300 7f 7a 3a 3d c5 d5 83 3c ec 0e d8 bd 97 c3 24 be
       0.045526978 0.016093144 -0.10549721 -0.16090237
000310 e6 1b 89 bc 21 fb 21 3e 94 b2 ef 3c 31 d6 07 be
       -0.016736936 0.15818454 0.029259957 -0.13265301
000320 7b b5 f0 bc 9f 36 b7 bd a2 9b b5 3d 90 da cc be
       -0.029383412 -0.08945965 0.08867575 -0.400105
000330 92 9e e7 bd 54 50 c6 bd 9c 17 e3 bd ca 07 92 be
       -0.11309542 -0.0968329 -0.110884875 -0.28521568
000340 66 84 05 bf d5 69 ed be 61 f3 ac be 05 2d bf be
       -0.5215515 -0.46369806 -0.33779433 -0.37339035
000350 ee 47 28 be 8f 6a 3d 3d a2 98 4b be ea a5 0c bf
       -0.16433689 0.0462442 -0.19882444 -0.54940665
000360 8c b7 75 be df ba bb bd 31 f2 1d 3e 2a ab 39 bd
       -0.23995799 -0.09166502 0.1542442 -0.04532925
000370 76 00 4b be b9 b8 f0 bc ab 08 9a be 69 90 63 be
       -0.19824395 -0.029384958 -0.30084738 -0.22223057
000380 9b e7 48 be d1 af 06 be 6b 9e d2 be 01 48 2e be
       -0.196196 -0.13153006 -0.41136488 -0.17019655
000390 d3 33 88 bd 6c 71 2c bd 30 ba 07 be fb ea cd be
       -0.0665051 -0.042100355 -0.13254619 -0.40218338
0003a0 ec 91 90 be 7b e9 53 be d7 01 68 be af e6 2c be
       -0.2823633 -0.20694534 -0.22656952 -0.16884874
0003b0 99 e5 68 bd ef c8 b0 be e5 e7 48 be 4b 1c 97 bd
       -0.056859586 -0.345283 -0.1961971 -0.07378443
0003c0 ba 10 b7 be 35 76 b8 be 35 49 1b bd cb ac a9 be
       -0.3575495 -0.36027685 -0.037911613 -0.33139643
0003d0 0c 3f a1 be aa 90 bc be 15 b8 bd be 3b 00 02 bd
       -0.31493413 -0.3682912 -0.37054506 -0.0317385
0003e0 75 73 e7 bc 3b 9b 16 3c 94 1a b2 be f4 cb 69 be
       -0.028253296 0.009192283 -0.34785903 -0.22831708
0003f0 5b 07 36 be ac 41 80 bd 0e ba 95 bc d7 4c f2 be
       -0.17776243 -0.06262526 -0.018277194 -0.4732425

conv4.bias f4 [32]
000000 c9 dc 08 bf 9c f3 a2 be 84 f4 aa be 07 db d2 be
       -0.5346189 -0.31826484 -0.33389676 -0.4118273
000010 35 76 ea bd 14 06 e6 be 05 59 cf be ce 2d 92 bb
       -0.114483275 -0.44926512 -0.40497604 -0.0044610268
000020 4e 27 7c be 06 c2 a5 be 12 01 9b 3e 42 08 b0 be
       -0.24624369 -0.3237459 0.30274254 -0.343813
000030 c1 a9 41 be e7 88 8c 3e fb 7a 0f bf 04 b1 23 3e
       -0.18912412 0.27448198 -0.5604703 0.15985495
000040 70 1a df be 05 76 00 bf 9a 85 41 be 24 0d 42 be
       -0.43574858 -0.50180084 -0.18898621 -0.18950325
000050 5c d0 c6 bc b4 20 0c 3e d5 b9 bd be 34 65 f8 be
       -0.024269275 0.1368435 -0.3705584 -0.48514712
000060 ac 7d 91 be bc 1a 0a bf 7e 10 f9 3d 20 6f 96 be
       -0.28416193 -0.53947043 0.12161349 -0.29381657
000070 cc ad e4 be 14 47 12 bf 56 62 54 be 74 d3 de be
       -0.44663846 -0.57139707 -0.20740637 -0.435207

fc.weight f4 [1, 1440]
000000 b2 ae 88 be a9 11 da 3d 3b 31 4f 3e 34 f7 7d 3e
       -0.26695782 0.106479 0.20233624 0.24801332
000010 9b e7 62 3b 8c 59 de 3d be c8 93 be a2 37 f1 3e
       0.003462291 0.108569235 -0.28864092 0.47112757
000020 39 55 37 bd b4 f1 38 3e 0c b2 50 be 02 91 33 be
       -0.04475901 0.18060952 -0.2038042 -0.17535785
000030 16 cb 3c be 0e c4 11 be 86 c8 0a bd a5 d8 5c bd
       -0.18436846 -0.14234945 -0.03388264 -0.053917546
000040 e5 9e 39 bd 11 7a d0 bd 92 09 fe bc 94 84 79 3e
       -0.04531755 -0.10179532 -0.031010423 0.24366981
000050 1b f8 4d be 65 af 48 3e 6b 44 18 be 65 74 ae bd
       -0.20114176 0.19598158 -0.1486985 -0.08518294
000060 81 1e 3b 3e e5 01 48 3e 3e 93 ce bd 54 83 d1 bc
       0.18273355 0.19531973 -0.10086678 -0.025575317
000070 75 51 03 3e 81 93 bb 3d 7b 90 46 be af fc 10 be
       0.12824042 0.091589935 -0.19391052 -0.14158891
000080 2f 3e 89 bd 55 2b bf bd b5 f0 38 be 00 4c c4 3d
       -0.06701314 -0.09334437 -0.18060572 0.09584808
000090 e5 64 4d be 0e 4f 24 bd eb f7 10 3d 40 f5 f3 3c
       -0.2005802 -0.040114455 0.035392683 0.02978003
0000a0 70 cf 42 3d 75 2d 0a 3e 74 95 77 3c 9e 95 e9 bd
       0.04756111 0.13493903 0.015111316 -0.1140549
0000b0 49 f9 7b be 46 a6 d7 3d 34 b9 d2 be 51 1c 05 3f
       -0.24606813 0.10529761 -0.41156924 0.5199633
0000c0 15 f6 a8 bd 3f ae 91 3e 87 e8 a5 be 0e e9 88 3e
       -0.082500614 0.28453252 -0.32403967 0.26740307
0000d0 b1 21 a3 3e 8b fe ba bd d5 80 33 be 6b ed 41 be
       0.31861642 -0.091305815 -0.17529614 -0.18938224
0000e0 96 20 9a 3e c0 5f 03 3e 54 b5 0e 3e 0a 7c c3 3d
       0.30102986 0.12829494 0.13936359 0.09545143
0000f0 72 17 7f 3e c8 e1 36 be f4 66 42 3d 0f d4 2c be
       0.24911287 -0.17859566 0.047461465 -0.16877769
000100 26 34 bb 3d 0f ae 80 3d ae c0 17 be 69 75 d3 ba
       0.09140806 0.06283199 -0.14819595 -0.0016133013
000110 4e 7f 06 be 09 2e 6b be 36 a7 b4 3d 2d f2 87 be
       -0.131345 -0.2296678 0.088209555 -0.26551953
000120 dc 6e d9 3e 1d 80 c3 bd b5 b0 17 3f 77 6f bb be
       0.42467391 -0.0954592 0.5925401 -0.36608478
000130 e4 3c 87 3d 90 1c 92 bc 42 ba 3f 3e 65 65 ad be
       0.06603411 -0.017835885 0.18723395 -0.3386642
000140 3b bd 42 3d ab dd 1c be 6e 4b 96 bc 69 17 c2 bd
       0.047543745 -0.15318935 -0.018346515 -0.094771214
000150 7c 8a 14 be 15 15 c8 bc fc c9 b0 3e 9f 77 1e be
       -0.14505953 -0.024424115 0.34529102 -0.1547532
000160 32 51 01 3e 5e 27 a4 3d b1 43 b7 bc fd 9e ab 3e
       0.1262863 0.08015321 -0.022371145 0.33519736
000170 dc ba 9b 3e c9 e4 a3 3e df 36 2d be fb 5a a7 3e
       0.30416 0.32010487 -0.16915463 0.326866
000180 84 6b a8 bd dd 8c bb 3e ac 78 81 3e 0e 66 26 be
       -0.08223632 0.36630908 0.25287378 -0.16249868
000190 d9 a8 20 3e 14 02 90 3d 32 e8 76 3e 15 ad 88 3b
       0.1568941 0.07031646 0.24112013 0.0041710236
0001a0 b9 c9 fe bd 0e 22 41 3e e9 9f 92 be 6b 80 08 bd
       -0.12440819 0.18860647 -0.28637627 -0.033325594
0001b0 da 44 8d bd 5e fc 69 3e c2 7e 99 3e 5c 4a e0 3d
       -0.06897898 0.22850177 0.2997952 0.10951683
0001c0 65 db 71 be 85 2f 55 3c 40 05 fe bc ec 44 ad be
       -0.23618849 0.013011818 -0.031008363 -0.33841646
0001d0 55 c7 05 be 8c dc 19 3e 67 88 6a bd e7 57 7a 3d
       -0.1306432 0.15025538 -0.05725899 0.061118986
0001e0 29 87 2a be 75 6d df 3d ba 9c 10 3e eb 73 7c 3e
       -0.16653122 0.10909549 0.14122286 0.24653594
0001f0 c2 c3 c8 3d ab 48 cf bc 34 10 04 3d df a9 13 3c
       0.09802963 -0.025303205 0.032242015 0.009012668
000200 60 37 68 bc 7b e7 80 3d 87 ad 9c 3e 9e 19 1a 3e
       -0.014173359 0.062941514 0.3060114 0.15048835
000210 a4 81 46 3e 77 9f 87 be d2 0e a7 bd 60 3b 66 3e
       0.19385391 -0.2648885 -0.081571236 0.22483587
000220 39 57 32 be 3c c6 a3 3e 96 81 8b 3e 83 68 4b be
       -0.17416085 0.31987178 0.27247304 -0.19864087
000230 09 c3 4b be 3c 0b 10 3e 34 07 4c 3e ef fe 14 3f
       -0.19898619 0.14066786 0.19924623 0.582015
000240 99 38 af bd 20 42 a2 3e 61 08 8d 3e c0 9f 4d 3e
       -0.08555717 0.31691074 0.27545455 0.20080471
000250 2c 70 03 be 89 64 20 be e5 b4 ce 3d d1 cb 9a 3e
       -0.12835759 -0.15663351 0.10093097 0.30233625
000260 f7 7e 54 3e 1d 76 46 bd 18 fa 85 be 78 7e 4e be
       0.20751558 -0.048452485 -0.2616737 -0.20165431
000270 32 50 94 3e e5 28 2e 3e cb 4a 15 be c9 1b 28 3e
       0.28967434 0.17007788 -0.14579313 0.16416849
000280 48 9d af 3e f7 22 b9 bd 12 4c 82 3e fc 84 b9 3e
       0.34299684 -0.09039872 0.25448662 0.36234272
000290 df 79 48 be f5 15 bc 3b 30 a1 d1 3d 03 d9 48 3e
       -0.1957774 0.005739922 0.10235822 0.19614033
0002a0 2e ea f1 bd 46 eb 46 3d 34 47 8a 3e 1c e2 76 be
       -0.11812244 0.048564218 0.2700745 -0.24109691
0002b0 99 08 9a be 61 f4 d9 be 52 ed c1 bd 8b 86 93 bd
       -0.30084684 -0.4256926 -0.094690934 -0.072033964
0002c0 5e 77 ab 3e 73 fd 85 3e 6d be 9b 3d e7 5e fc bd
       0.33489507 0.2616993 0.0760468 -0.12322789
0002d0 14 ea 4c 3f 2b 6e ee 3e b6 c4 ae 3e ad e9 38 be
       0.80044675 0.46568426 0.34134454 -0.1805789
0002e0 eb 77 82 be a4 3a a5 be ab 32 64 3e 6e c8 a3 3e
       -0.25482115 -0.32271302 0.22284953 0.31988853
0002f0 0b d7 64 be dc 2b dd 3e a4 51 36 be 55 e3 7d 3e
       -0.22347657 0.43197525 -0.17804581 0.24793752
000300 08 1d e0 3d a3 89 4f 3d ba ba c4 bd 2e 87 3f be
       0.10943037 0.05066837 -0.09605928 -0.1870391
000310 6c 4c ad bc 75 9b 86 be cf 26 0f 3d d9 86 53 be
       -0.021154605 -0.2629048 0.03494912 -0.20656909
000320 cc 80 66 bd d1 39 c4 3d 79 9d b6 3d c8 2c 34 3c
       -0.056275174 0.0958134 0.08916754 0.010997005
000330 b6 ea 97 bd 54 52 15 3d 0c 0b 1c 3e 34 16 b0 bd
       -0.074178144 0.036455467 0.15238589 -0.08597985
000340 50 77 fe bd 13 62 5a be 8e e2 e3 3d 37 65 06 3d
       -0.12425101 -0.21326475 0.11127196 0.03281137
000350 fe 6e d5 3c ac 64 54 3e 39 4a 8a 3c bb 03 b2 bd
       0.026053902 0.20741528 0.016881095 -0.08692118
000360 ed 30 cf bd c2 8d 8c 3e 3a cf b6 3e e4 29 95 3e
       -0.10116754 0.27451903 0.35704976 0.29133523
000370 b6 4a 3c 3e d2 05 86 3e 77 29 64 bd 59 15 79 bd
       0.18387875 0.26176316 -0.055703606 -0.060811374
000380 c9 65 f5 3d 50 be db be ec 05 29 be bb 7f 8f 3e
       0.119823046 -0.42918634 -0.16506165 0.28027138
000390 89 fa 66 3e ef 5f 93 3e d4 6f 55 be 12 c7 2c be
       0.22556509 0.2878413 -0.2084344 -0.16872814
0003a0 41 a7 8c be e8 2b 41 3e 54 43 19 3e 8e d8 13 be
       -0.27471355 0.18864405 0.1496709 -0.14438078
0003b0 b7 f2 28 3e 9e df 62 3e 82 17 2f bd 7c 39 8f be
       0.16498838 0.22155616 -0.04274703 -0.27973545
0003c0 3c 99 4c be 24 b9 55 3e d4 16 2f bc ce 10 1d be
       -0.1998033 0.20871407 -0.010686595 -0.15338442
0003d0 54 b2 7a be 32 31 1c be 4c fb 53 be 94 0e 14 be
       -0.2448209 -0.15253142 -0.20701331 -0.14458686
0003e0 8c aa 51 3e 67 eb 6f be c2 09 be 3e f4 e1 a5 bc
       0.20475215 -0.23429643 0.3711682 -0.020249344
0003f0 2f 59 cc bd 9c 6a ed bc e1 39 63 3e 95 e0 e6 bc
       -0.09977948 -0.0289815 0.22190048 -0.028183261
